portfoliowebsite/api/artifacts/titanic/model.ckpt (torch, 15327 bytes, 27 tensors)

exp_avg f4 [16, 8]
00000000: 6878 73b9 db97 1c3b a47a 97ba b8ca 1e3b
00000010: 6e08 a0b9 fb54 f9ba 3d99 9238 2b6d 9f3b
00000020: 2ed3 f73b c1a1 9d3b d800 0dbb 9e90 903a
00000030: 8a9b 4bb9 c26f 6c3a af18 953b 20d7 6bb9
00000040: eb69 113b 81cb fb3a 1249 f4ba d7fc f8b8
00000050: bbf1 8039 10ab 263a eb60 8b3b 9e57 14bb
00000060: 1cdc f03b a285 c63b 6814 803a feb5 a73a
00000070: eab5 ba3a ee1e 533b 092e 083c 0f88 5bbb
00000080: 7a64 a03b 8072 66b9 cf70 66ba 688d 91b9
00000090: 33dc e139 11f5 783b 281c d4ba 20ea c0b9
000000a0: cc47 9bbb 1c2e 1438 b8a3 a5ba 8475 39ba
000000b0: 4293 8db9 e03c c638 a20c 013a 029a 75bb
000000c0: 5bf8 183c d889 693a 2ee5 ffba 3e9b 08bb
000000d0: 42c7 8d39 a243 1a3c 3c5a a8ba 680d 96bb
000000e0: caf7 de3b d2fd 963b d4af e5b9 9c08 4e38
000000f0: 1618 9239 41ef 9b3a abc5 543b e064 023b
00000100: 3636 b03a 6edd 493b c51e 283a e04c 1b3b
00000110: 7ac7 1a3a 73dc 3c3b a88b c8b7 a616 cf3b
00000120: 3cc6 093b b82c 9aba f03d 50ba 4caf edb9
00000130: 225d b238 b655 0b3b aa59 d1b9 cdd7 63bb
00000140: 1057 533b 8aa3 dd3a 3f02 baba f6ff 9bba
00000150: 804e c5b9 9a75 303b 5ff6 173a 90eb 4bb9
00000160: 2eed 16bc 10ef bebb 5046 803a 9ebb c639
00000170: 50c0 1fba f1b8 d8bb 07b9 76bb e45f b139
00000180: deb8 93bb 0873 3eba f482 a23a c200 d839
00000190: b213 a2b9 ba19 30bb d751 4a3a 9cc0 35ba
000001a0: 1de6 eb3b 5a4f 043b dbf0 b3ba 9e01 1bba
000001b0: f968 c939 e2cc ca3b 7186 5d3a fac1 8dbb
000001c0: d5dc 2bbc 8ca5 03ba b032 d3ba 56d8 1fbb
000001d0: 89b1 81ba ed4f 1fbb 2df2 1e3b 7573 02bc
000001e0: 5f29 cbbb 28e5 4839 c5a6 ccba 0d5e 1abb
000001f0: bcfd 65ba c89c 19ba fad8 9f3a d108 94bb
-0.0002321914 0.0023894224 -0.0011556935 0.0024229717 -0.0003052386 -0.0019022519 6.9903654e-05 0.0048653088
0.0075630164 0.0048105423 -0.0021515395 0.0011029427 -0.00019417531 0.0009019339 0.0045500617 -0.00022491487
0.0022188376 0.0019210429 -0.0018637499 -0.000118726566 0.00024594166 0.0006357888 0.004253497 -0.0022635232
0.007350458 0.0060584107 0.0009771707 0.0012795327 0.0014244888 0.003221448 0.008311757 -0.0033497845
0.0048947902 -0.00021977164 -0.00087906135 -0.0002776191 0.00043079405 0.0037987868 -0.0016182708 -0.0003679553
-0.0047387835 3.5328892e-05 -0.0012637293 -0.0007074701 -0.0002700333 9.4527146e-05 0.0004922842 -0.003747583
0.009336556 0.0008908785 -0.0019523257 -0.0020844485 0.00027042074 0.009415539 -0.0012844275 -0.004579235
0.006804441 0.0046078945 -0.00043809286 4.9122245e-05 0.00027865235 0.0011896865 0.0032466452 0.0019896552
0.001344389 0.0030802148 0.00064132764 0.0023696944 0.0005904358 0.0028817921 -2.390689e-05 0.0063198386
0.0021022698 -0.0011762595 -0.00079438 -0.0004533477 8.505049e-05 0.0021260804 -0.0003993039 -0.0034766078
0.0032247938 0.00169097 -0.0014191343 -0.0011901844 -0.00037633255 0.0026925565 0.0005796905 -0.00019447342
-0.0092118215 -0.0058268383 0.000978658 0.0003790529 -0.00060940254 -0.0066138436 -0.0037646906 0.00033831515
-0.004508122 -0.0007265066 0.0012398646 0.00041199295 -0.00030913722 -0.0026870803 0.00077178836 -0.0006933303
0.0071990625 0.0020188899 -0.0013728397 -0.0005913022 0.00038415918 0.0061889747 0.0008450514 -0.0043261023
-0.010489662 -0.0005021922 -0.0016113129 -0.002439042 -0.0009894829 -0.0024309114 0.0024253235 -0.007962097
-0.0062 0.00019158854 -0.0015613666 -0.0023554594 -0.0008773466 -0.0005859849 0.0012195401 -0.0045176526

exp_avg_sq f4 [16, 8]
00000000: 3c79 b438 5fe3 133a 64db ef37 2137 d138
00000010: 18c9 bf38 d688 ea39 f4dc 023b 840b a73a
00000020: 4275 7f3a 68f5 c939 0ad8 8038 c265 8e38
00000030: 8a45 ea37 8c25 9439 c76a 363a ddf3 693a
00000040: 7584 173a c6b0 153a 427c 3738 4759 6238
00000050: 85b0 2339 9fd9 813a 8147 173a ded6 913a
00000060: b282 8e3b 18b5 cd3a aee8 3739 87d8 6439
00000070: 34d1 1c38 98f5 a93a af45 233a 1666 923b
00000080: 2038 623a c179 e839 d8da 8e38 1820 8938
00000090: 666f 9237 c8e1 243a 081c 6239 325d b63a
000000a0: 3c59 1a3a ba3f 9238 8537 ec37 6017 ac37
000000b0: b291 0636 d69e 6e37 577e f639 319f d339
000000c0: 2283 4e3b 90c8 873a 39f1 1039 1585 5539
000000d0: 5d75 1f38 d8c4 1f3b cc73 223a e1c9 7c3b
000000e0: c273 bc3a a59f b339 458c e738 5fc2 9538
000000f0: 6642 3237 ee25 5e39 8812 ba39 14a3 b13a
00000100: 738d 7639 cbab 0b39 0010 2738 390f 0839
00000110: 9eb9 5038 792e 0b3a 6a2a 1439 eae0 9a3a
00000120: 9479 9d39 6cb6 7939 8a49 8f37 58c2 a337
00000130: 7b08 c437 7cef 9239 87a6 7939 4cab 243a
00000140: e62f 5e3a 543b d339 f583 f837 a91d 4738
00000150: 42e6 c337 ae11 743a ba6c 273a a46c 113a
00000160: 831c 543a 3e05 9c39 e4b7 cd36 f36d 9c36
00000170: cf80 a737 115c 043a 2d37 ac39 2c1f 043a
00000180: aa4f d53a 0794 153a 904e 8937 83e7 4037
00000190: cd07 f437 83b3 7d3a cb25 243a 474d 933a
000001a0: 0564 8b3a fd89 2a3a 086a 6b38 3b5d 3138
000001b0: 95e8 4638 d6e0 a73a a3f6 b439 e8f9 883a
000001c0: f379 173b 4ad4 8438 5f86 a538 b4c3 4239
000001d0: d801 c837 7892 0d3a 8981 0f39 bf6f 323b
000001e0: 70ce 533b 97ce 3939 6b79 ce38 5a67 8039
000001f0: 4af8 1b38 f6af 943a 332e ab39 03fc 4b3b
8.6056505e-05 0.0005641486 2.8593182e-05 9.976165e-05 9.145046e-05 0.0004473391 0.0019968124 0.0012744521
0.0009744951 0.0003852055 6.143756e-05 6.7900415e-05 2.7927355e-05 0.00028256734 0.000695866 0.0008924583
0.00057799305 0.000571024 4.3746324e-05 5.3965745e-05 0.0001561065 0.0009906775 0.0005770848 0.0011126657
0.004349076 0.0015694229 0.0001753892 0.00021824437 3.7388134e-05 0.0012966869 0.000622834 0.004467736
0.0008629579 0.00044341202 6.8118505e-05 6.538647e-05 1.745643e-05 0.00062897475 0.00021563482 0.0013913272
0.0005887931 6.9736925e-05 2.8159246e-05 2.0514883e-05 2.0052362e-06 1.4222887e-05 0.00047014907 0.00040363663
0.0031511267 0.0010359455 0.00013822773 0.0002036284 3.8017857e-05 0.0024378803 0.00061970646 0.0038572478
0.001437776 0.00034260485 0.000110410656 7.141078e-05 1.0625086e-05 0.000211857 0.0003549049 0.0013552629
0.00023513082 0.00013320071 3.9830804e-05 0.00012975642 4.9763934e-05 0.0005309354 0.0001413018 0.0011816297
0.00030035956 0.00023814448 1.7081173e-05 1.9521613e-05 2.336897e-05 0.0002802572 0.00023808527 0.0006281629
0.00084757654 0.0004028926 2.9625351e-05 4.747292e-05 2.3353034e-05 0.0009310496 0.0006386746 0.00055475
0.0008091407 0.00029758544 6.130884e-06 4.661962e-06 1.9967933e-05 0.00050491194 0.00032847506 0.00050400454
0.0016274352 0.0005705957 1.6368256e-05 1.1497995e-05 2.90907e-05 0.00096779334 0.0006261735 0.001123824
0.0010634667 0.0006505547 5.6127115e-05 4.2286916e-05 4.7423488e-05 0.0012808095 0.00034516034 0.0010450454
0.002311346 6.3337924e-05 7.892842e-05 0.00018574187 2.3842716e-05 0.00054005487 0.00013685798 0.002722725
0.0032319091 0.00017719936 9.845461e-05 0.00024491065 3.7186117e-05 0.0011343944 0.00032650083 0.0031125552

exp_avg f4 [16]
00000000: a2c4 463b ed47 ab3b fd14 2c3b c213 063c
00000010: 6c93 ed3a f124 4fbb 8dc6 683b 1791 d23b
00000020: 2a5e 163c 9c5a e5ba 71b4 493b bc7f 24bc
00000030: 72f5 2abb 6e77 313b e88a 02bc 5a8c 7ebb
0.0030329605 0.00522708 0.0026257627 0.008183422 0.00181256 -0.0031607712 0.0035518736 0.0064259875
0.009177724 -0.0017498317 0.0030777717 -0.01004022 -0.0026086238 0.0027079242 -0.007967688 -0.003884098

exp_avg_sq f4 [16]
00000000: efb7 6e3b a4e0 f43a eeec 313b 01ea d23b
00000010: 46c4 153b 0574 643a 113a e13b d81b fa3a
00000020: ec8b f33a 0535 993a a583 0b3b 02d7 ad3a
00000030: 9beb 323b 7af4 303b 6784 5a3b 3fd2 923b
0.003642555 0.0018682671 0.0027149278 0.006436587 0.0022852584 0.0008714798 0.006873377 0.0019081784
0.0018581129 0.0011688775 0.0021288183 0.001326293 0.0027301076 0.0027001188 0.0033343078 0.0044806297

exp_avg f4 [12, 16]
00000000: 7827 ee37 8c9c f938 9f6f 8bb9 0c74 a3b8
00000010: 5717 aa39 421f c2b8 2e1f 0e39 ab4a 83b8
00000020: 95f8 8338 ddff b439 57ce 2539 9ed6 b03a
00000030: de7e 6939 a18e 86b9 06a5 58b9 0b81 68b9
00000040: 4217 473a 366c e639 c182 5b3a 61c2 43b8
00000050: 60dd 9a3a 09a9 5939 7236 1439 67ed 4839
00000060: 0b28 c7b9 ff67 903a 9bef 433a b0c7 d2b8
00000070: d41c d239 8e2a 2b3a b689 b5b9 0234 8db7
00000080: 7985 753a eb8b bf3a 203f db37 a84f e43a
00000090: 1e6e 6339 b939 43ba 2d4f 4e3a 5650 b73a
000000a0: 7647 d8b9 eb4d 8b3a 0ca2 9b3a 6bfe b03b
000000b0: d24e 7d3b 09cd 79ba 64f7 1dba d00a 11b8
000000c0: 24ec 88b9 66d2 55ba da6e 00ba a752 cdb8
000000d0: 4076 5fb8 1284 42ba a3fa 0c3a dd60 34ba
000000e0: b171 cdba a631 27ba e549 c9b9 c092 353b
000000f0: b9c2 9039 1ac4 22b9 c576 b839 08de 4638
00000100: d208 51ba 8edc fab9 d07a 05ba ca1f c7b9
00000110: 9825 f638 f223 2bba 4c58 b238 9564 4aba
00000120: 404f 56ba ef64 0dba ce04 b8b9 c077 1a3b
00000130: faef 8839 76ca 0a39 80a2 0b37 6923 d4b9
00000140: fc20 d339 ba96 643a ad27 0dba 3448 0ab7
00000150: f627 823a 8a75 69b9 b710 193a 00dd c5b9
00000160: a410 cbb9 8650 023a fc28 443a b4e6 213b
00000170: a8f5 aa38 6b9b e5b9 f318 eeb9 5f3a 37ba
00000180: 5ad6 0aba 3009 feb9 129c b6b9 5cc4 f0b9
00000190: b87b 01b9 f14d c0b9 a2e7 09b8 7cee 0aba
000001a0: 09fe b839 1da5 20ba 0149 a1b9 9a0d ba3a
000001b0: 186f 3139 7a33 0339 6065 b937 fc44 92b9
000001c0: e060 93b8 f668 d83a 24cd b739 fcbb 86ba
000001d0: ed30 7b3a 1495 2d39 f778 88ba c46b 5139
000001e0: cfad e9b9 e2ee 653a a8ad 22b9 0ebc 87bb
000001f0: 2605 11ba c355 e5b9 a5d0 0ebb 3217 9cba
00000200: 3619 683a 4d90 dab9 fbeb d0b8 231a 09b9
00000210: ec2b 413a 4510 c339 1bb6 e6b8 54d1 61b8
00000220: 874b 263a 80ba 673a a858 0639 2b97 d63a
00000230: e4a5 123a 35d7 acb8 ee27 9338 c49f 93b9
00000240: d442 5137 4877 9939 7cb8 fa38 2dca 78b9
00000250: 000b abb5 7c2e e3b9 d8fe 9b37 30dd deb7
00000260: 0ca3 3a39 1756 ab39 50c6 b839 48c9 ccb9
00000270: 0930 e139 ffd1 d438 7c3f 79ba 0036 ebb5
00000280: fa9f 193a 1390 473a 13fe 0db8 99d0 47b8
00000290: 3ee6 4639 c383 d0b9 d79b 5b3a 5ca0 feb9
000002a0: 13c6 c3b8 7a12 8cb9 f8ad 5e39 d0c2 dc3a
000002b0: f4f8 9e39 4f26 0bba 4c24 3e39 c8e0 5f39
000002c0: 4195 c9b9 3ada 35b9 fb9a a3b9 023b f0b8
000002d0: 7a1f fa39 be14 22ba 4826 cf38 6663 b7b9
000002e0: 32f2 9a39 cf20 9ab8 e6c0 86b9 bc4f af3a
000002f0: f56c 0139 0428 2bb9 6036 19b9 517d a0b9
2.839019e-05 0.000119024044 -0.0002659531 -7.794061e-05 0.00032442316 -9.256463e-05 0.0001355379 -6.260475e-05
6.292869e-05 0.00034522908 0.00015812494 0.0013491695 0.00022267873 -0.00025664738 -0.00020660841 -0.00022173316
0.0007594713 0.00043949642 0.0008373671 -4.6672652e-05 0.0011815242 0.00020757703 0.00014134662 0.00019161926
-0.00037986072 0.0011017321 0.00074743637 -0.00010050775 0.000400758 0.00065294735 -0.00034625613 -1.6832728e-05
0.0009365897 0.0014613842 2.613623e-05 0.0017418759 0.00021689429 -0.0007447261 0.00078700745 0.0013985734
-0.00041251973 0.001062808 0.0011873855 0.0054014227 0.0038651717 -0.0009529149 -0.0006025939 -3.4580764e-05
-0.0002611588 -0.0008156657 -0.00048993307 -9.790557e-05 -5.3277472e-05 -0.00074201927 0.0005377924 -0.0006880889
-0.0015674141 -0.00063779426 -0.00038392763 0.0027705878 0.000276109 -0.00015522577 0.00035183705 4.741366e-05
-0.00079740316 -0.00047848042 -0.0005091848 -0.00037979922 0.000117371965 -0.00065284886 8.504148e-05 -0.00077206764
-0.00081752613 -0.00053937634 -0.00035098795 0.0023569912 0.00026118738 0.00013236128 8.322881e-06 -0.00040462174
0.0004026963 0.000871997 -0.00053846353 -8.242252e-06 0.0009930122 -0.00022264398 0.00058389775 -0.00037739426
-0.00038731575 0.00049711054 0.0007482914 0.002470416 8.151989e-05 -0.0004379408 -0.00045413486 -0.0006989594
-0.0005296223 -0.000484535 -0.00034830027 -0.00045922666 -0.00012348488 -0.00036679165 -3.287907e-05 -0.0005299819
0.00035284486 -0.00061281194 -0.00030762705 0.0014194727 0.00016921421 0.0001251231 2.2100925e-05 -0.00027898687
-7.0275506e-05 0.0016510773 0.00035057322 -0.0010279412 0.00095821806 0.00016554102 -0.0010412027 0.00019971939
-0.0004457072 0.0008771253 -0.00015514216 -0.004142291 -0.0005532078 -0.0004374218 -0.0021791842 -0.0011908768
0.00088538544 -0.00041687713 -9.962168e-05 -0.00013075075 0.00073689106 0.0003720542 -0.000110011744 -5.3839132e-05
0.0006343652 0.00088397413 0.00012812263 0.0016371956 0.00055941776 -8.2416846e-05 7.016944e-05 -0.0002815706
1.247293e-05 0.00029271306 0.00011955292 -0.0002372644 -1.2743694e-06 -0.00043331448 1.859611e-05 -2.656746e-05
0.00017799082 0.00032679804 0.0003524297 -0.00039059878 0.00042951133 0.000101480626 -0.0009508056 -1.752458e-06
0.0005860325 0.0007612716 -3.3853645e-05 -4.763957e-05 0.00018968523 -0.00039771022 0.0008377409 -0.00048566132
-9.335219e-05 -0.00026716647 0.00021236378 0.0016842727 0.00030321593 -0.00053081376 0.00018133334 0.00021350675
-0.0003844891 -0.00017342801 -0.00031205252 -0.00011455083 0.00047707168 -0.00061829004 9.8776596e-05 -0.00034978538
0.00029553619 -7.349403e-05 -0.00025702192 0.0013375203 0.00012342988 -0.00016322738 -0.00014611473 -0.00030610946

exp_avg_sq f4 [12, 16]
00000000: 4395 8537 7699 9e38 4e59 0137 c0e6 0437
00000010: fc94 2f38 2209 0737 78fd 3c37 bd8d c136
00000020: 9352 a437 6ca4 6438 1267 e437 743b 7937
00000030: a622 0b37 a303 dc36 8518 7837 353a 4337
00000040: e3e6 6737 32c6 1237 70ba 8637 43a0 ee36
00000050: 788e 6937 1e74 b337 da1e 0d37 6080 1a37
00000060: a2cb 6537 d299 7c37 eedf 5f37 e8f7 8437
00000070: 6caa 4b37 e9fb 6537 fd38 c836 b32b a336
00000080: e47f 6838 d346 fd38 87ae 6338 a624 0138
00000090: 3d74 4638 3685 4d38 3371 dc37 4262 3338
000000a0: dfc5 0b39 cfec 8738 d8e4 7b38 8c48 9d39
000000b0: a9d5 4d39 6d51 5438 2e0a 5638 d468 2538
000000c0: 94b0 7837 d6d2 3d38 dd1e 3137 2630 1437
000000d0: 5f74 d637 8ee1 cb37 a2e2 2037 f87d 2537
000000e0: 5d19 cd37 36f3 df37 6d76 8c37 c109 c937
000000f0: 471a 6537 5cbe 1637 89c3 b037 a466 5b37
00000100: b8f4 7137 b65d f337 6494 5237 bb8c b736
00000110: 063d 3c37 6a5d 8a37 b096 c036 8339 ce36
00000120: 36b0 1538 affd 7037 4a2d 3d37 ae3f 2d38
00000130: 78f5 a737 138d 3837 9937 8b37 cdd8 2737
00000140: 7530 3e38 f41c 2239 362a c037 6015 c437
00000150: 97ff f638 275d 1d38 a214 2338 87ae 9237
00000160: 2430 0d38 c263 1839 f4eb 9a38 21fe 1338
00000170: cca2 b837 eed5 8837 456e 2f38 0ba4 0238
00000180: 47ba 9637 b154 1a38 4148 8437 ec98 ed36
00000190: 9d4b 4b37 bae4 7337 0479 fd36 21e3 cc36
000001a0: 367c 6738 f64e 9537 7ff0 7f37 953f 7e38
000001b0: 6de1 0d38 1156 6f37 f10d 9537 4fb7 4d37
000001c0: a679 9638 98c8 f138 5a57 3e38 9fea d537
000001d0: eacb 2d38 aace be38 7f5d ac37 71f6 0d38
000001e0: d892 1b39 a0d3 5238 012f 2838 2004 5639
000001f0: e7b1 a938 3111 3d38 f569 c338 79a0 7d38
00000200: 44b8 2438 53ce 0c39 69fc fd37 cf59 b137
00000210: a99c d238 d090 dd37 af34 2238 4ced 7037
00000220: a06c cc37 e030 f738 ff7a 9238 c823 c537
00000230: 80aa 8737 e9e9 8637 5b87 e637 b778 ac37
00000240: 68ba a837 df46 3138 4d60 9d37 87a1 0337
00000250: 6158 1337 8f1d f737 b1ce bb36 5390 2137
00000260: 397b ef38 ce72 6837 a3b8 4237 690e 8f38
00000270: 134b 2038 b19f 8a37 ae12 ad37 0ed4 6537
00000280: 87c6 8a38 5c10 4f39 c0d8 0038 8c54 0a38
00000290: b801 1d39 6d1c 7038 6763 8338 bca6 c937
000002a0: cab2 4638 a698 2939 0203 e038 216e 5438
000002b0: a758 0f38 ceea db37 0fd3 5238 d8dd 1238
000002c0: 0c22 5d37 505e 3c38 90d1 0d37 2c35 f536
000002d0: b7b5 5a37 5258 4237 eca2 c036 7ba5 a436
000002e0: 7a77 6238 8693 9437 0f67 2837 59f5 2638
000002f0: 05f0 a737 de89 0537 396d 6337 2ba7 2e37
1.5924341e-05 7.5626114e-05 7.709792e-06 7.921539e-06 4.1862004e-05 8.048753e-06 1.12646885e-05 5.7683487e-06
1.9588775e-05 5.4512566e-05 2.7227714e-05 1.4855399e-05 8.293113e-06 6.5569343e-06 1.4787661e-05 1.1636458e-05
1.382243e-05 8.748424e-06 1.6060862e-05 7.1116096e-06 1.3921053e-05 2.1392534e-05 8.411438e-06 9.209005e-06
1.3696876e-05 1.5056185e-05 1.33439735e-05 1.5851067e-05 1.2139422e-05 1.3708116e-05 5.967099e-06 4.862866e-06
5.5432218e-05 0.00012077172 5.428356e-05 3.079013e-05 4.7315134e-05 4.899987e-05 2.6278756e-05 4.2768435e-05
0.00013329786 6.481411e-05 6.005619e-05 0.00029999425 0.00019629918 5.0620572e-05 5.1031057e-05 3.9436694e-05
1.4823065e-05 4.5257468e-05 1.0557208e-05 8.832698e-06 2.5564977e-05 2.4304518e-05 9.58951e-06 9.864096e-06
2.4449715e-05 2.6696925e-05 1.6744447e-05 2.396561e-05 1.3655582e-05 8.985018e-06 2.1071888e-05 1.3077315e-05
1.4421697e-05 2.9011495e-05 1.2551525e-05 5.470208e-06 1.1219881e-05 1.6494381e-05 5.7395882e-06 6.1459737e-06
3.5688478e-05 1.436418e-05 1.12758225e-05 4.130572e-05 2.0022257e-05 1.1000101e-05 1.6595981e-05 1.00044535e-05
4.534466e-05 0.0001546031 2.290784e-05 2.3374974e-05 0.000117778014 3.751847e-05 3.8881444e-05 1.7485827e-05
3.3661854e-05 0.00014533012 7.387242e-05 3.5284207e-05 2.2010317e-05 1.6312082e-05 4.1825948e-05 3.1147192e-05
1.7968136e-05 3.6795336e-05 1.5769272e-05 7.080953e-06 1.2117348e-05 1.4537183e-05 7.5540756e-06 6.106115e-06
5.5190372e-05 1.7798953e-05 1.5255179e-05 6.0617534e-05 3.3826964e-05 1.4265549e-05 1.7768676e-05 1.2261632e-05
7.175216e-05 0.00011529139 4.5380883e-05 2.5500833e-05 4.1436324e-05 9.0984e-05 2.0547535e-05 3.3846536e-05
0.00014836655 5.0264993e-05 4.0098097e-05 0.00020410167 8.091685e-05 4.5077122e-05 9.3180606e-05 6.0469352e-05
3.9272258e-05 0.00013428302 3.0277488e-05 2.1141865e-05 0.000100427606 2.6412687e-05 3.8672875e-05 1.4360365e-05
2.4369278e-05 0.000117869815 6.984732e-05 2.3500892e-05 1.617265e-05 1.6082968e-05 2.7481166e-05 2.056021e-05
2.0113963e-05 4.2266092e-05 1.8760702e-05 7.845817e-06 8.78246e-06 2.9458459e-05 5.5970963e-06 9.629951e-06
0.0001141936 1.3855008e-05 1.160629e-05 6.8214555e-05 3.821689e-05 1.6525244e-05 2.0631905e-05 1.36988365e-05
6.6173314e-05 0.00019747153 3.0719442e-05 3.2980504e-05 0.00014973327 5.7246933e-05 6.265082e-05 2.4038709e-05
4.737339e-05 0.00016173962 0.000106817126 5.0647304e-05 3.417642e-05 2.6216174e-05 5.0264465e-05 3.501572e-05
1.3180554e-05 4.491053e-05 8.4530475e-06 7.307759e-06 1.3036121e-05 1.1583865e-05 5.7410125e-06 4.9068453e-06
5.399387e-05 1.771167e-05 1.00375755e-05 3.9805982e-05 2.001972e-05 7.9595175e-06 1.3555685e-05 1.041013e-05

exp_avg f4 [12]
00000000: a043 003b 8371 6cbb 381a 823a e803 8a3b
00000010: 5673 b63b 5641 c93b e0c1 2f3b e4c0 fb3a
00000020: abe5 27bb a8b5 0db9 747a 063b 2907 823b
0.0019571558 -0.00360784 0.0009926027 0.0042118914 0.0055679483 0.006141822 0.002681844 0.0019207266
-0.002561907 -0.0001351448 0.0020519765 0.0039681387

exp_avg_sq f4 [12]
00000000: 02fa 103a 2dce 3d3a 90c8 083b 0288 743a
00000010: a856 3e3a 306c f43a d16d 4c3a dc69 753b
00000020: 515a c53a a57d 813a 4527 323b 29d5 213a
0.0005530418 0.00072405004 0.0020871498 0.0009328128 0.00072608376 0.0018647965 0.00077983463 0.003744713
0.0015056824 0.0009879364 0.002718405 0.0006173426

exp_avg f4 [8, 12]
00000000: e042 abb9 e9b4 1c3a 5704 6b3a 40d3 4f37
00000010: cd9e b0b9 ec0c 7139 e6f5 62ba 6a4f 5d3b
00000020: 3690 b7b9 00d0 c839 836d 10ba c0fd 8d35
00000030: 3cbd 74ba 9892 83b9 6e2b 12b9 d774 fa38
00000040: 0d18 523a c2a3 fbb9 f3b6 463a b712 0f39
00000050: 129e 5cba b81a 9eb7 08ed d738 7f73 0d3a
00000060: 3330 0bbb 24e6 4dba 23b1 4fba 0b18 abb9
00000070: 361f 9039 89d6 5dba af53 6cba ec2d c339
00000080: 6aa8 2eba e470 f4b8 681c 563a 6cfc bcba
00000090: 32c3 efb9 90fd c539 458a ef3a 1658 fa39
000000a0: 9077 ab38 d4d6 be39 549a 52b9 3285 323b
000000b0: 48b0 26ba b617 0eba 72c1 e5b9 f347 873a
000000c0: 6fb0 20bb ca31 46ba 6c0a cdba 2c5b db39
000000d0: a412 cd3a 0357 0aba 80cd a439 ced3 9bba
000000e0: 4f6f 3eba 7a06 1fba 0c01 f23a 9871 7439
000000f0: 1869 4dba 7c93 2aba 964d d038 2a95 ad39
00000100: b5c6 6b3a 45d8 c9b8 1677 b839 3e01 c439
00000110: 00fb 13ba f685 a4b9 50e0 0a38 b5e7 393a
00000120: b0bf 09b9 d10e 9bb9 1c3a f8b8 1b9f c638
00000130: 2695 ed39 46fd 8239 f806 2239 6a9f 4eba
00000140: 0482 2d38 8ce1 18ba 44ed 45b9 c5c2 343a
00000150: 6c07 c2b9 8c58 3db9 d8ff 6eba 2e26 18ba
00000160: 00f8 d036 2ec0 7038 6d39 8fba a9bd 1a39
00000170: b43d 18b9 f0eb d637 2cd4 3839 043f 7fb9
-0.00032665487 0.00059778854 0.0008965185 1.2387347e-05 -0.00033687652 0.00022988365 -0.00086578575 0.0033769258
-0.00035011926 0.00038301945 -0.00055094826 1.057917e-06 -0.00093360594 -0.00025095488 -0.00013939824 0.00011942692
0.0008014448 -0.0004799646 0.0007580362 0.00013644515 -0.00084158883 -1.884751e-05 0.000102961494 0.00053959334
-0.0021238446 -0.0007854423 -0.0007922819 -0.00032633575 0.00027489074 -0.0008462449 -0.00090151554 0.00037227513
-0.0006662669 -0.00011655854 0.0008167685 -0.0014418489 -0.00045731064 0.00037763687 0.001827546 0.00047749345
8.176186e-05 0.00036399683 -0.00020084652 0.0027240035 -0.00063586654 -0.00054204033 -0.00043822412 0.0010321125
-0.0024519225 -0.000756052 -0.0015643365 0.00041838863 0.0015645814 -0.0005277248 0.00031433627 -0.0011888684
-0.0007264511 -0.0006066334 0.0018463447 0.0002331197 -0.00078357896 -0.0006506962 9.9326644e-05 0.00033108267
0.0008994148 -9.62471e-05 0.0003518394 0.0003738496 -0.0005645007 -0.00031380326 3.311067e-05 0.0007091717
-0.00013136747 -0.00029574943 -0.00011836385 9.4710114e-05 0.00045315287 0.00024984236 0.0001545212 -0.0007882031
4.13675e-05 -0.0005831949 -0.00018875772 0.0006895478 -0.00037008093 -0.00018057431 -0.0009117103 -0.0005804029
6.227754e-06 5.739944e-05 -0.0010927148 0.00014757238 -0.00014518836 2.5620655e-05 0.00017626648 -0.0002434217

exp_avg_sq f4 [8, 12]
00000000: bcb1 3338 ebbc f337 107f 2638 7304 a737
00000010: 8013 a237 5d90 0238 d257 8237 db9f 723a
00000020: 5305 0c38 9c01 7639 3ca1 b537 f9f9 2538
00000030: 09cb bb37 a605 d536 a2e3 c037 91b4 ae37
00000040: 0112 9838 d2e8 9036 38e5 0f39 de8d be37
00000050: 2bfb ca36 02b5 9637 4780 0337 f792 5f39
00000060: b7cd d237 dfc2 7337 b029 f237 e829 9e37
00000070: 7e04 9c38 ad1d e336 ed5f 2d39 db86 1a38
00000080: 5cd1 4737 b4f5 d637 f813 5e37 3b90 4739
00000090: b853 bc38 616e 7e38 6fb7 a738 d556 2638
000000a0: 9805 2238 5200 8838 90e9 e237 cc45 fd3a
000000b0: 9f61 9138 3aec 083a f300 3b38 6350 9b38
000000c0: 0de2 1438 696f 1338 73fc 7538 225a c237
000000d0: f97e ba38 d6a4 8437 9d67 7539 c0be 8938
000000e0: 8563 e137 0313 3a38 4d66 d537 6161 6039
000000f0: 1ccb ed37 fa7b a636 ee6d ac37 7fa6 0c38
00000100: 332d d238 0983 ae36 3810 2239 22a7 b737
00000110: 45d0 ab36 a587 9837 987f 0837 dc7b 9a39
00000120: c51e cb37 66ab d535 7c1d ba37 d186 1538
00000130: 8b38 9138 590d b836 2b7b d038 350f 3a37
00000140: 2100 1536 f916 3037 2fe1 d036 1872 4239
00000150: 21b7 1a38 c501 3736 3530 bb37 91bc 1338
00000160: 5e76 e438 0958 ac36 5d01 3939 dcca 5937
00000170: 5a82 7836 8223 8137 6723 cf36 ebf1 a939
4.2842454e-05 2.905583e-05 3.969582e-05 1.9910023e-05 1.9320985e-05 3.1128864e-05 1.5538102e-05 0.00092553877
3.338356e-05 0.00023460988 2.1651962e-05 3.957187e-05 2.2386683e-05 6.3485522e-06 2.2994183e-05 2.08265e-05
7.251278e-05 4.3186383e-06 0.00013722933 2.2715827e-05 6.049309e-06 1.7965682e-05 7.838075e-06 0.00021321686
2.5129744e-05 1.4529301e-05 2.886806e-05 1.8854582e-05 7.4394964e-05 6.768582e-06 0.00016534301 3.6842055e-05
1.191007e-05 2.5625202e-05 1.32368805e-05 0.00019031849 8.9801324e-05 6.0661117e-05 7.997348e-05 3.9658353e-05
3.862902e-05 6.485045e-05 2.705006e-05 0.0019323169 6.932322e-05 0.0005223189 4.458516e-05 7.405949e-05
3.5496476e-05 3.515129e-05 5.8647664e-05 2.3168574e-05 8.892822e-05 1.5812384e-05 0.0002340362 6.568199e-05
2.6868433e-05 4.436356e-05 2.5439216e-05 0.00021398581 2.8347182e-05 4.9616183e-06 2.0555188e-05 3.3533663e-05
0.00010021999 5.2008586e-06 0.00015455566 2.1893127e-05 5.120443e-06 1.8182976e-05 8.135939e-06 0.0002946545
2.4213814e-05 1.591962e-06 2.2186658e-05 3.5649926e-05 6.924671e-05 5.485181e-06 9.941155e-05 1.1090005e-05
2.2202805e-06 1.0495766e-05 6.225098e-06 0.00018543785 3.6887013e-05 2.7270155e-06 2.2314585e-05 3.5223147e-05
0.00010893935 5.136248e-06 0.00017643483 1.298144e-05 3.7030754e-06 1.5394533e-05 6.173202e-06 0.00032414435

exp_avg f4 [8]
00000000: 99dd c2bb 0d5d 943b a321 973b 0104 85bb
00000010: 3365 0f3c d90c 793b 5e32 17bb 26a2 12bb
-0.0059468267 0.004527694 0.004612164 -0.004059315 0.008752155 0.0038002043 -0.0023070793 -0.002237448

exp_avg_sq f4 [8]
00000000: 2990 bf3a 2cde 313a 6c7d 8d3a b48e 443b
00000010: 40ce 0b3b 522d 2f3a 3c6f b039 cc04 153a
0.0014615107 0.00067851203 0.0010794825 0.0029992284 0.0021332651 0.00066824735 0.00033652212 0.0005684614

exp_avg f4 [4, 8]
00000000: e8b5 ceb8 b4cb d5b8 938a 05bb eed2 3039
00000010: 9c29 4c3a 0bc1 1f39 c84a 8fba b1c7 84ba
00000020: 3a6b 24bb 3364 313b f555 ef3a b803 c7b9
00000030: 272a be3a 938f ab3a fe3c 4f3b 5b01 183b
00000040: 7f53 ea3a ce85 7f3a 4cca a43a 9c7c bf3a
00000050: 881b 8239 e499 b2b9 d308 ce39 8860 9bb8
00000060: 8112 d23a ecf0 643a 3807 29b9 3ff2 023b
00000070: 5262 4cbb 0a67 203a 33af 503b c41f 193b
-9.856728e-05 -0.00010194574 -0.0020376786 0.00016863245 0.00077881827 0.00015235336 -0.0010932321 -0.0010130313
-0.0025088326 0.002706778 0.001825987 -0.00037959008 0.0014508412 0.0013089053 0.0031622048 0.0023194167
0.0017877667 0.00097474165 0.0012572496 0.001460928 0.00024816045 -0.00034065463 0.00039297956 -7.408956e-05
0.0016027243 0.000873341 -0.00016119785 0.0019980816 -0.0031186533 0.00061188696 0.0031842708 0.002336488

exp_avg_sq f4 [4, 8]
00000000: a3d2 1b38 cdb7 6139 d4c3 a539 8be2 2f38
00000010: b352 0e3a a88d 8938 0a93 3c38 f5dd 8038
00000020: b9a2 b539 d273 9b38 d598 8f38 88c8 0b39
00000030: 0ef5 b238 d7cc af38 33b8 ec38 1433 c438
00000040: 8ca6 e239 acf7 bd38 10f6 b538 e1db 2c39
00000050: 5cea f238 8900 d038 9b4a 0d39 a23a ea38
00000060: 6543 d139 d867 b138 26ec ad38 9e46 2439
00000070: da5d ee38 a558 cd38 c49e 0539 82c8 e238
3.715105e-05 0.00021526143 0.00031617156 4.1934236e-05 0.0005429193 6.5590546e-05 4.4959634e-05 6.144858e-05
0.00034644248 7.412549e-05 6.8472385e-05 0.00013330777 8.5333464e-05 8.382805e-05 0.00011287667 9.355522e-05
0.00043230166 9.058355e-05 8.676585e-05 0.0001648511 0.00011583112 9.9183126e-05 0.000134746 0.00011168911
0.000399138 8.45936e-05 8.293269e-05 0.00015666566 0.000113662056 9.791673e-05 0.00012743013 0.00010813867

exp_avg f4 [4]
00000000: 07aa 81ba a36b 94bc c656 6dbb bc7c 95bc
-0.0009892591 -0.018117731 -0.003621505 -0.018247955

exp_avg_sq f4 [4]
00000000: e04f df3a ae55 6b3b 65ce 893b 6213 893b
0.0017037354 0.0035909223 0.0042055123 0.004183219

exp_avg f4 [1, 4]
00000000: d1b6 98bb d2c7 143c b651 a43a e2f3 753b
-0.0046604653 0.009080844 0.0012536559 0.0037529399

exp_avg_sq f4 [1, 4]
00000000: fe12 033a 116e 6c3a d83c 303a 8465 3b3a
0.00050000835 0.0009019087 0.00067229336 0.0007148611

dense1.weight f4 [16, 8]
00000000: d1b1 7fbf 4a6d ab3b 4f43 bcbf 651c 7b3e
00000010: f274 a23f de67 4bbe c617 633e 1624 44be
00000020: fc72 81be 4e4c 583f b3ef 0f3f 18e1 233f
00000030: 5d74 903f 3f91 2fbe c066 023e a181 b5bd
00000040: e71c 27bf c6c7 053f 00fd 103f 004b bfbf
00000050: d43d 843f 844e af3e 4799 2abe 2eba b0bd
00000060: 4fb8 4b3e 5604 8d3f 916e 3b3d e343 333f
00000070: 4500 b2be edb5 c5be 6daf 7fbe bd04 12bd
00000080: 7092 0dbf b917 07bd 0258 22be 9feb 03bf
00000090: cfcd 91be 4045 9c3e d965 923e fe06 993b
000000a0: de1b 123f 0d5b f5bf 1051 13be 432e d33d
000000b0: 66cb 92bf 8609 5abf f459 0f3f 7ab3 49be
000000c0: a92c 93be a619 16bf 5e7f a5be 4010 b93e
000000d0: b67c e4bf 9214 003f 78bb a13e a123 e4bb
000000e0: 3ac7 993e 4993 1e3f 4d15 3f3f 2f5a b93e
000000f0: b71b bebd f2bc e9be a0fb 0f3e 35ef fbbc
00000100: 48d5 3ebf e834 a0bf be6b e73f 3a1f e43f
00000110: 0bf2 643f 7cd6 53bc fd71 9abf 56c2 1e3e
00000120: 71f0 25bf b74e c53e a2db 1fbe 04b0 63bf
00000130: ada6 c63e 4bbc 983e 5d99 913e f3d5 41bd
00000140: fa3a fbbe ff4d fe3d 74c5 353e cc8c d33e
00000150: 845a b1bf b7da f13e 057d 5d3e e9db bdbe
00000160: 408c e33e 61e0 663f 8827 d7bf 474c d2bf
00000170: 8da7 cfbd 0797 97be 85e9 a0bc cba1 5cbe
00000180: 3059 f13e fde2 4f3f 6673 51bf 6243 a6bf
00000190: 376c 25be 10eb 71be 4a04 563e 4f82 253d
000001a0: fe15 18bf c45b c73e 2a56 1e3f 5e28 92bf
000001b0: 6b51 8ebe 3e86 873e d4db b5be a0da b9be
000001c0: 0cb3 a83e bdf2 16c0 cb5c 89bf ea97 233f
000001d0: 19c3 7dbf 5b6f aa39 e325 debd 4a08 58be
000001e0: 0601 243e 1475 b1bf 9eb7 35bf b826 343f
000001f0: 6cc9 b6bf b576 c33e 9592 343e bdc5 a63d
-0.998807 0.005231534 -1.4708041 0.2452255 1.2691939 -0.19863841 0.22177038 -0.1915439
-0.2528304 0.8449143 0.56225127 0.6401534 1.1285511 -0.1714525 0.12734509 -0.088626154
-0.65278476 0.52257955 0.5663605 -1.4944763 1.0331368 0.3423959 -0.16660033 -0.08629261
0.19894527 1.1016948 0.04575974 0.7002546 -0.3476583 -0.3861536 -0.24969263 -0.03564905
-0.5530157 -0.032981608 -0.15853885 -0.51531404 -0.28477332 0.30521584 0.2859333 0.004670023
0.5707377 -1.9168411 -0.14386392 0.10311558 -1.1468322 -0.8517078 0.5599663 -0.19697371
-0.2874501 -0.58632886 -0.32323736 0.3614521 -1.7850559 0.5003139 0.3158834 -0.006962255
0.3003481 0.6194349 0.7464188 0.36201617 -0.0928263 -0.45651966 0.14060831 -0.030753711
-0.7454419 -1.2516146 1.8079755 1.782203 0.8943183 -0.012929555 -1.2066036 0.15503821
-0.6482001 0.38536617 -0.15611127 -0.88940454 0.3879904 0.29831156 0.2843732 -0.04732318
-0.49068433 0.1241722 0.17751104 0.41318357 -1.3855748 0.4723718 0.21629722 -0.3708184
0.4444294 0.90186125 -1.6808939 -1.6429528 -0.1013938 -0.29607412 -0.0196426 -0.21546094
0.47138357 0.8120573 -0.8181671 -1.2989314 -0.16154562 -0.23624825 0.20900074 0.040407475
-0.5940856 0.389372 0.61850226 -1.1418569 -0.27796492 0.26469606 -0.35519278 -0.3629961
0.32949102 -2.3585656 -1.0731443 0.6390368 -0.9912582 0.00032507893 -0.1084707 -0.21096912
0.16016015 -1.3863854 -0.709833 0.7037158 -1.4280219 0.38176504 0.17634042 0.08143184

dense1.bias f4 [16]
00000000: e361 1b3e 7d8c c1bd 96fc edbd b3ef f2be
00000010: 5a76 903e 7125 1dbc a744 993e 8a08 f7be
00000020: e94f b9be 474a 093e af06 0e3e f8bd 24be
00000030: dde2 fbbe 2a98 743e c5a7 783e e263 e6bc
0.1517406 -0.09450624 -0.116204426 -0.474485 0.28215295 -0.009591446 0.2993519 -0.48248702
-0.3619378 0.13407241 0.13869737 -0.16088092 -0.4919652 0.23886171 0.24282749 -0.0281238

dense2.weight f4 [12, 16]
00000000: e1f1 a43e 668b 163e 9b54 a03f 0b34 40be
00000010: 60bb a13e 0804 de3c ec13 2fbd 16e4 59be
00000020: 3df4 a7bd 92df 933d 96b8 833e fe28 5abe
00000030: 54d4 53be 5c0b 973f fc51 52bf 5ebd a8be
00000040: ce6f 17bf b066 6fbf 7dd7 1bbf 2d37 f0be
00000050: 93ba 52bf 3434 e63e 4473 2fbe 8f98 bbbe
00000060: 68f7 1ebe f44b 6bbf 8ab8 aabe d11d cfbe
00000070: a5ec 7cbe 2fe8 41bf 6cd2 4340 41ee 2840
00000080: b354 373f 3168 8d3f 6b3b 593e 3091 be3f
00000090: 6859 31bf ea48 e03e 5804 2ebf 2ade 363f
000000a0: a377 bdbd 0871 9abe e551 89bd 4764 cbbe
000000b0: 84b4 a6be d8bc 79be 6f6e f3be 9d6d 0bbf
000000c0: 15dc 013f 23f5 463e 1042 d8bd 16e9 67be
000000d0: 493a 223e 6b79 993e 9390 353f 93e4 07be
000000e0: cb95 22bf 44e8 ebbc dc3a 463e b8b7 cbbe
000000f0: 7536 9bbe 772e 89be 94e6 243e e630 d43e
00000100: 8e14 cc3e 134e a8bd 122f 523c 63f9 09bf
00000110: 2709 fd3e 6fb3 c4be db34 373f a9c6 82be
00000120: da8e 8fbe 0bdf c73d 2f2f 8d3e 60b6 08be
00000130: 05ea bdbe 62af ef3d 34b5 bcbe 51a6 ee3d
00000140: b54f ea3e 79cf b6bd 5080 ab3e 457b 8dbd
00000150: 1fe0 dabc 783e c33e b181 923e a045 50bd
00000160: 6d78 31bf 72c4 c93e 3397 043e 730c 22be
00000170: 53c4 f4be 95a7 91bd ee86 d93e 0641 df3e
00000180: 8245 c53e 0445 d1bd ca0c fc3e 6493 1cbf
00000190: a806 b73d d15b 36bf d021 1b3e 09fb dcbe
000001a0: 0008 81bd 3211 a93e 4908 7a3e c4aa 70be
000001b0: 4e0d 1a3c 94f1 023f 5c22 1ebf b007 0f3e
000001c0: 0e3a a1be 3cf2 8cbd 31a7 fdbe c8f6 603f
000001d0: fe33 07bf 351e 2b3e 7c89 9bbf ed21 d23e
000001e0: d7e9 393d 40b6 2abe a79e 3cbf 65dc ca3e
000001f0: 6ccd 353f c472 2cbf 4e3e 5fbf 3904 75bf
00000200: 9eeb 3a3e 7256 00be a30c 4d3f f296 1dbe
00000210: fd31 26be e52b 4d3f 8e89 c43d 67ed b6bc
00000220: ff63 adbf 85cb ca3d dd04 d73d d368 0bbe
00000230: 4ee7 c8be 53b8 f23e 36ff 603f 04f3 3f3f
00000240: e900 66be 0b41 f2bc 14e6 d5be e3c1 a93f
00000250: 2943 36bf ed99 003f c8ce 26bf 8a55 5a3f
00000260: 825d a23e 5bf3 d0be 2f1f 22be 8aec 56bd
00000270: 0767 d03e d7f4 67be 9021 14bf 0485 18bf
00000280: fe25 183f 2067 d23d af9b a2be 8842 ff3c
00000290: d797 a4be 8f00 e43e f011 973e 8873 203e
000002a0: c115 b7bf 74c5 33be 9878 b63e 07c4 5fbe
000002b0: 0dc0 96be 6f83 58be 9dc1 853f e419 263f
000002c0: 7152 553e 2141 183e 2923 0e3f 7fe3 00bf
000002d0: b0ad 293f ee72 0ebf a4cc 3e3f 145d 98be
000002e0: 7d69 35be 2bdd 073f b2f3 ad3e 273a 9dbe
000002f0: 82d5 97bd 134d 623f ffdf e8be 655d 893e
0.3221579 0.14701614 1.252582 -0.18769853 0.31588268 0.027101532 -0.04274361 -0.21278414
-0.08200882 0.07220377 0.25726765 -0.213047 -0.20686466 1.1800342 -0.8215635 -0.32956976
-0.59154975 -0.93516064 -0.60875684 -0.46917096 -0.8231594 0.44961703 -0.17133814 -0.3663983
-0.15524065 -0.9191277 -0.33343917 -0.40452436 -0.24699648 -0.7574491 3.0597181 2.6395419
0.71613616 1.1047422 0.21214072 1.4888058 -0.6927705 0.4380563 -0.6797538 0.71432745
-0.092513345 -0.3016436 -0.06705073 -0.39724943 -0.32559597 -0.24388444 -0.47545192 -0.5446413
0.50726444 0.1942945 -0.105594754 -0.22647509 0.15842547 0.29975447 0.7092373 -0.13270788
-0.63509816 -0.028797276 0.1935839 -0.39788604 -0.30314985 -0.26793262 0.16103584 0.41443557
0.39859432 -0.082180165 0.012828605 -0.5389616 0.49421045 -0.38418147 0.71565026 -0.2554219
-0.28038675 0.09759339 0.2757506 -0.1335082 -0.37092605 0.117033735 -0.36856997 0.11652816
0.45763937 -0.08926291 0.33496332 -0.069082774 -0.026718197 0.38133597 0.28614572 -0.05084765
-0.6932438 0.39407688 0.12948303 -0.15825062 -0.47806033 -0.07112042 0.42485756 0.43604296
0.38529593 -0.10218242 0.49228507 -0.611624 0.089368165 -0.7123385 0.15149617 -0.43160275
-0.06300354 0.3302093 0.24417223 -0.23502642 0.009402586 0.5114987 -0.6177118 0.13967776
-0.31489605 -0.0688214 -0.4954162 0.8787656 -0.5281371 0.16710742 -1.2151332 0.41041508
0.045389023 -0.16671085 -0.73679584 0.39621273 0.71016574 -0.6736262 -0.87204444 -0.9570957
0.18253943 -0.12532976 0.8009741 -0.15389612 -0.16230007 0.801451 0.09596549 -0.02233
-1.3546141 0.099020995 0.104989745 -0.13614206 -0.3923897 0.47406253 0.8788942 0.7498019
-0.22461285 -0.02957203 -0.41777098 1.3262295 -0.7119623 0.5023487 -0.65159273 0.8528677
0.31711966 -0.40810665 -0.15832208 -0.052471675 0.40703604 -0.22651993 -0.5786371 -0.59577966
0.5943297 0.10273576 -0.31759402 0.031159654 -0.32147095 0.44531676 0.29505873 0.15669072
-1.4303514 -0.17555791 0.3563888 -0.21852122 -0.29443398 -0.21143888 1.0449711 0.64883256
0.2083223 0.14868595 0.555224 -0.5034713 0.6628065 -0.5564412 0.74531007 -0.29758513
-0.17716022 0.5307185 0.33974987 -0.3070843 -0.0741377 0.88398856 -0.45483395 0.26829067

dense2.bias f4 [12]
00000000: 1a4b 8ebe 2bce 22bf e39b e3bd bfa4 003e
00000010: e772 a23d 3301 4ebc c5cd 6d3e 56ff 26be
00000020: 78b4 873c eb5e e0bd 9abc e33c f01c e03d
-0.27791673 -0.6359584 -0.111137174 0.12562846 0.07932072 -0.012573528 0.23223026 -0.1630834
0.016565546 -0.10955604 0.027799893 0.109430194

dense3.weight f4 [8, 12]
00000000: 87d8 8abe 9c6f 6dbe ef83 723f 9754 e3be
00000010: 35ad 01bf a83a 8fbe fe2a 4abf 504d a23c
00000020: c60d 53be 7eac 543e 0b09 533e ec9b 5dbf
00000030: b614 843e f0d4 953f d5ab c63e d726 e23d
00000040: 32fd 7a3c e99d ec3e 329b ab3d 49c2 4bbf
00000050: d64e 173f 83af a2be 6071 543f b13b aa3e
00000060: 53ee 1e3e 28cc 8f3f 5944 393e 246e 963e
00000070: 5413 743e 837c 073f 70cc 883d 2b36 94bf
00000080: 5c64 273e ad3a 27bf 0ce0 403f 3b92 273d
00000090: 1f16 fabe 0dcd a83c 94f6 533f 5535 843d
000000a0: 4e43 12bf 5438 4fbe 64e1 9cbe 786d ce3c
000000b0: 0244 df3c 7151 653e f267 a73e 43c5 1cbf
000000c0: d4db b4bd 8953 043f c13b cf3d 3e3c 3b3f
000000d0: 1d93 7e3e 4ce8 953e 035a 413e e90e bbbf
000000e0: 6256 9bbe a67c 4dbf 6bd8 ae3e fc97 0dbd
000000f0: 39dd 8e3e bb91 ad3f 3526 913e 4bfd 463e
00000100: 2251 403e 055c 193f e6d8 98be 8eb0 13bf
00000110: 4a5a 1f3f b27e 76be bcef 813f 3369 633e
00000120: 1d07 d43e 5472 1240 0e16 4d3f 7825 7d3e
00000130: 17bc 0abe 5d52 6c3f 6611 c03e 8c18 723e
00000140: fa26 0e40 da99 713e b67d c33f 9bc6 8cbd
00000150: 6287 123f 0034 613f e435 0b3f 5391 903d
00000160: 71a9 243e 136b 1e3f cd67 8b3e 4a42 e9bd
00000170: d65d 573f 58bd a4bd 690c 113f 670a ed3d
-0.27118322 -0.23187107 0.94732565 -0.44400474 -0.5065492 -0.2797444 -0.7897185 0.019812256
-0.20610723 0.20768926 0.20608918 -0.8656604 0.2579705 1.1705608 0.38802972 0.11042564
0.0153191555 0.46214226 0.083792105 -0.7959333 0.5910467 -0.3177453 0.82985497 0.33248666
0.15520601 1.1234179 0.18092479 0.29380906 0.23835498 0.52924365 0.06679618 -1.1579031
0.16346878 -0.6532391 0.7534187 0.04091094 -0.48845002 0.020605588 0.82798123 0.06455485
-0.5713395 -0.20236331 -0.3064071 0.025198683 0.027254108 0.22394349 0.3269649 -0.612385
-0.088309914 0.51689965 0.10118819 0.731388 0.24860807 0.2927879 0.18881993 -1.4613925
-0.30339342 -0.80268323 0.3414949 -0.03456877 0.27903154 1.3560098 0.28349462 0.19432561
0.1878095 0.59906036 -0.2985298 -0.57691276 0.62247145 -0.24071768 1.0151286 0.22208099
0.41411677 2.288228 0.8011178 0.24721324 -0.13548313 0.92313176 0.37513274 0.23642176
2.221129 0.23593846 1.5272739 -0.068738185 0.5723783 0.8796997 0.54379106 0.070589684
0.16080262 0.6188213 0.2722763 -0.11389597 0.8412756 -0.08043927 0.5665956 0.1157425

dense3.bias f4 [8]
00000000: 5b3c e6bc ea51 0b3e 5781 4f3e 736e c8bd
00000010: 8db5 2e3e b32e 7f3d ff7f 17be 6366 efbd
-0.028104952 0.13605466 0.20264183 -0.097866915 0.17061444 0.062300395 -0.1479492 -0.116894506

dense4.weight f4 [4, 8]
00000000: d8df 47bf 80ba ea3e 845c 893e 3dd2 05bf
00000010: 6c6a 483d 1e48 493f a888 ae3f 2e21 653f
00000020: 950a 853e e645 34be fff4 d7be 0a8c 153f
00000030: bed4 3abf d99d 56be 19e9 d63d 6123 e5bd
00000040: f84a b03e 7c59 94be 8df2 a9be 13fd b23e
00000050: b3da 12bf 68bb 69be fe88 003e 1708 8bbd
00000060: a461 743e e096 98be eb9a dfbe d4b9 eb3e
00000070: 6a31 09bf 7fd9 39be af05 e53d bbad 2fbd
-0.78075933 0.45845413 0.26828396 -0.52273923 0.048929617 0.7862567 1.3635454 0.89503753
0.25984636 -0.17604789 -0.42179105 0.5841681 -0.7298087 -0.20958652 0.104936786 -0.111883886
0.34432197 -0.2897452 -0.33192864 0.34958705 -0.5736496 -0.22825396 0.12552258 -0.067886524
0.23865372 -0.29802608 -0.4367288 0.46040213 -0.53591025 -0.18149374 0.11182725 -0.04289029

dense4.bias f4 [4]
00000000: 7b78 783d 409c d73e 7c79 c23e 0742 d03e
0.060661774 0.42111397 0.3798331 0.40675375

dense5.weight f4 [1, 4]
00000000: caf7 a13f 3595 8bbf 3e53 9fbf 9419 9bbf
1.2653744 -1.0904909 -1.2447278 -1.2117181
